person_tinycnn_int8.tflite (tflite, 421712 bytes, 5 tensors)

sequential_1/dense_1/MatMul i1 [1, 32] scale=0.003321065 zero_point=0
0	0xc0	-0.21254817
1	0x6c	0.35867503
2	0x97	-0.34871185
3	0x76	0.39188567
4	0xc7	-0.18930072
5	0x3e	0.20590603
6	0x51	0.26900628
7	0x40	0.21254817
8	0xc4	-0.1992639
9	0x09	0.029889585
10	0xad	-0.27564842
11	0xa8	-0.29225373
12	0xc6	-0.19262178
13	0x56	0.2856116
14	0xae	-0.27232733
15	0xfa	-0.019926392
16	0x44	0.22583243
17	0x20	0.10627408
18	0x78	0.3985278
19	0x85	-0.40849102
20	0x4f	0.26236415
21	0x6e	0.36531717
22	0xa1	-0.31550118
23	0xae	-0.27232733
24	0x65	0.33542758
25	0x60	0.31882226
26	0xe5	-0.08966876
27	0x31	0.16273218
28	0x84	-0.41181207
29	0xb6	-0.24575882
30	0x81	-0.42177528
31	0x8e	-0.37860143

sequential_1/dense/MatMul i1 [32, 12800] scale=0.00018285563 zero_point=0
0	0x2d	0.008228503
1	0xdc	-0.0065828026
2	0xbb	-0.012617039
3	0x5b	0.016639862
4	0xd7	-0.0074970806
5	0xdc	-0.0065828026
6	0x29	0.0074970806
7	0x63	0.018102707
8	0x0c	0.0021942675
9	0xf0	-0.00292569
10	0x09	0.0016457007
11	0x06	0.0010971337
12	0x09	0.0016457007
13	0x64	0.018285563
14	0x96	-0.019382697
15	0x55	0.015542728
16	0x65	0.01846842
17	0xeb	-0.0038399682
18	0xd6	-0.0076799365
19	0x5b	0.016639862
20	0x4d	0.014079884
21	0x2b	0.007862792
22	0x68	0.019016985
23	0xbd	-0.012251327
24	0xb9	-0.012982749
25	0xbb	-0.012617039
26	0x07	0.0012799894
27	0xe5	-0.004937102
28	0x45	0.012617039
29	0x25	0.006765658
30	0xa5	-0.016639862
31	0x3f	0.011519904
32	0xe7	-0.004571391
33	0x21	0.0060342355
34	0x06	0.0010971337
35	0xf7	-0.0016457007
36	0xc1	-0.011519904
37	0xc1	-0.011519904
38	0x07	0.0012799894
39	0xa3	-0.017005574
40	0x39	0.010422771
41	0xd1	-0.008594215
42	0x55	0.015542728
43	0x1e	0.005485669
44	0x57	0.015908439
45	0xd4	-0.008045647
46	0x14	0.0036571126
47	0xca	-0.009874204
48	0xde	-0.0062170913
49	0x6b	0.019565552
50	0x17	0.0042056795
51	0xdc	-0.0065828026
52	0xa3	-0.017005574
53	0xd6	-0.0076799365
54	0xeb	-0.0038399682
55	0xac	-0.015359873
56	0x2d	0.008228503
57	0x19	0.004571391
58	0x18	0.004388535
59	0xc1	-0.011519904
60	0xdb	-0.006765658
61	0xf8	-0.001462845
62	0xab	-0.015542728
63	0xa4	-0.016822718
64	0xa0	-0.01755414
65	0xee	-0.0032914013
66	0xcf	-0.008959926
67	0x10	0.00292569
68	0x56	0.015725585
69	0x37	0.010057059
70	0xb7	-0.013348461
71	0xb0	-0.01462845
72	0xb4	-0.013897028
73	0x90	-0.02047983
74	0xbd	-0.012251327
75	0xca	-0.009874204
76	0xc7	-0.010422771
77	0x9a	-0.018651273
78	0x18	0.004388535
79	0xec	-0.0036571126
80	0x05	0.00091427815
81	0x68	0.019016985
82	0x35	0.009691348
83	0xe5	-0.004937102
84	0xba	-0.0127998935
85	0x0f	0.0027428344
86	0x77	0.02175982
87	0x8f	-0.020662686
88	0xf1	-0.0027428344
89	0x50	0.01462845
90	0x12	0.0032914013
91	0xa4	-0.016822718
92	0x07	0.0012799894
93	0x0d	0.002377123
94	0x51	0.014811305
95	0x1b	0.004937102
96	0xf7	-0.0016457007
97	0x67	0.018834129
98	0x9b	-0.01846842
99	0x78	0.021942675
100	0x08	0.001462845
101	0xa3	-0.017005574
102	0x65	0.01846842
103	0x8d	-0.021028398
104	0x00	0.0
105	0x2c	0.008045647
106	0xa1	-0.017371284
107	0x54	0.015359873
108	0xce	-0.009142782
109	0x02	0.00036571125
110	0xf1	-0.0027428344
111	0xe8	-0.004388535
112	0x4c	0.013897028
113	0xb2	-0.014262739
114	0x96	-0.019382697
115	0xda	-0.006948514
116	0xb6	-0.013531316
117	0x4f	0.0144455945
118	0x73	0.021028398
119	0x2f	0.008594215
120	0x4d	0.014079884
121	0x1f	0.0056685247
122	0x57	0.015908439
123	0xee	-0.0032914013
124	0x4c	0.013897028
125	0xea	-0.0040228236
126	0xeb	-0.0038399682
127	0x03	0.00054856687
128	0x91	-0.020296974
129	0x14	0.0036571126
130	0x69	0.01919984
131	0x19	0.004571391
132	0xad	-0.015177017
133	0x36	0.009874204
134	0x3a	0.010605627
135	0x98	-0.019016985
136	0x74	0.021211253
137	0x22	0.0062170913
138	0x09	0.0016457007
139	0xf2	-0.0025599787
140	0x6d	0.019931264
141	0x99	-0.018834129
142	0x30	0.00877707
143	0xd5	-0.007862792
144	0x44	0.012434183
145	0xe0	-0.00585138
146	0x65	0.01846842
147	0x1d	0.0053028134
148	0xcb	-0.009691348
149	0xcf	-0.008959926
150	0x9d	-0.018102707
151	0xa5	-0.016639862
152	0xa6	-0.016457006
153	0x36	0.009874204
154	0xd2	-0.008411359
155	0xc9	-0.010057059
156	0x60	0.01755414
157	0xdf	-0.0060342355
158	0xd9	-0.0071313693
159	0xb2	-0.014262739
160	0xb0	-0.01462845
161	0x5c	0.016822718
162	0x2c	0.008045647
163	0x9a	-0.018651273
164	0xa8	-0.016091295
165	0x93	-0.019931264
166	0x68	0.019016985
167	0x68	0.019016985
168	0xb3	-0.014079884
169	0xf3	-0.002377123
170	0xca	-0.009874204
171	0xf4	-0.0021942675
172	0xb3	-0.014079884
173	0xbe	-0.012068471
174	0xfc	-0.0007314225
175	0xd4	-0.008045647
176	0x0b	0.0020114118
177	0x91	-0.020296974
178	0x2e	0.008411359
179	0x8f	-0.020662686
180	0xfd	-0.00054856687
181	0x59	0.01627415
182	0x47	0.012982749
183	0x53	0.015177017
184	0x75	0.021394107
185	0xa4	-0.016822718
186	0xa2	-0.01718843
187	0xe0	-0.00585138
188	0xe4	-0.0051199575
189	0x5f	0.017371284
190	0xe5	-0.004937102
191	0xbd	-0.012251327
192	0x57	0.015908439
193	0xce	-0.009142782
194	0xd0	-0.00877707
195	0x71	0.020662686
196	0x55	0.015542728
197	0xb4	-0.013897028
198	0xa1	-0.017371284
199	0xae	-0.014994161
200	0x03	0.00054856687
201	0x04	0.0007314225
202	0xea	-0.0040228236
203	0x37	0.010057059
204	0xab	-0.015542728
205	0x63	0.018102707
206	0xe0	-0.00585138
207	0x9f	-0.017736996
208	0xa1	-0.017371284
209	0xca	-0.009874204
210	0x68	0.019016985
211	0x1a	0.004754246
212	0x17	0.0042056795
213	0x11	0.0031085457
214	0x2d	0.008228503
215	0x62	0.017919851
216	0xef	-0.0031085457
217	0x10	0.00292569
218	0x5b	0.016639862
219	0x67	0.018834129
220	0x13	0.003474257
221	0xff	-0.00018285563
222	0xb1	-0.0144455945
223	0x76	0.021576963
224	0xaa	-0.015725585
225	0xfc	-0.0007314225
226	0x40	0.01170276
227	0x72	0.020845542
228	0x6e	0.020114118
229	0x19	0.004571391
230	0x69	0.01919984
231	0x99	-0.018834129
232	0x1e	0.005485669
233	0x6e	0.020114118
234	0x37	0.010057059
235	0x66	0.018651273
236	0x4e	0.014262739
237	0x3f	0.011519904
238	0x75	0.021394107
239	0x5f	0.017371284
240	0xd2	-0.008411359
241	0x26	0.006948514
242	0x16	0.0040228236
243	0xc8	-0.010239915
244	0xff	-0.00018285563
245	0xe7	-0.004571391
246	0xa7	-0.01627415
247	0x6e	0.020114118
248	0x41	0.011885616
249	0x07	0.0012799894
250	0xb5	-0.013714172
251	0xbe	-0.012068471
252	0x39	0.010422771
253	0x4b	0.013714172
254	0x0a	0.0018285563
255	0xab	-0.015542728

sequential_1/conv2d_2/Conv2D i1 [32, 3, 3, 16]
0	0xb7	-73
1	0xac	-84
2	0xfc	-4
3	0x48	72
4	0x75	117
5	0x7a	122
6	0xc8	-56
7	0x6a	106
8	0xff	-1
9	0x38	56
10	0xc5	-59
11	0x8f	-113
12	0x14	20
13	0x48	72
14	0x90	-112
15	0x6e	110
16	0x35	53
17	0x3b	59
18	0xcb	-53
19	0xb5	-75
20	0xcd	-51
21	0x6b	107
22	0x0f	15
23	0x3e	62
24	0x7b	123
25	0x72	114
26	0xdc	-36
27	0xb3	-77
28	0x3b	59
29	0x7d	125
30	0x77	119
31	0x57	87
32	0x24	36
33	0x8f	-113
34	0xb0	-80
35	0xcd	-51
36	0x6d	109
37	0x44	68
38	0xbc	-68
39	0x46	70
40	0x69	105
41	0x92	-110
42	0xc1	-63
43	0x22	34
44	0xa6	-90
45	0xe6	-26
46	0xb3	-77
47	0xa7	-89
48	0xdb	-37
49	0x75	117
50	0x8c	-116
51	0xc8	-56
52	0x8b	-117
53	0x37	55
54	0x46	70
55	0x92	-110
56	0x07	7
57	0x71	113
58	0x01	1
59	0x00	0
60	0xe8	-24
61	0xfd	-3
62	0x43	67
63	0xf1	-15
64	0xdc	-36
65	0x7f	127
66	0xbf	-65
67	0xdd	-35
68	0x8c	-116
69	0x03	3
70	0x68	104
71	0xa6	-90
72	0xa9	-87
73	0xc0	-64
74	0xae	-82
75	0x30	48
76	0x70	112
77	0x63	99
78	0x31	49
79	0x4e	78
80	0xde	-34
81	0x74	116
82	0xdb	-37
83	0x5f	95
84	0x84	-124
85	0xc6	-58
86	0x1b	27
87	0x87	-121
88	0xca	-54
89	0x4a	74
90	0x2d	45
91	0x39	57
92	0x3f	63
93	0x69	105
94	0x06	6
95	0x61	97
96	0x53	83
97	0x88	-120
98	0x44	68
99	0x02	2
100	0x27	39
101	0x26	38
102	0x68	104
103	0x2b	43
104	0xa0	-96
105	0xb9	-71
106	0xc2	-62
107	0xf5	-11
108	0xcd	-51
109	0xe7	-25
110	0x4c	76
111	0x89	-119
112	0x12	18
113	0x20	32
114	0xf2	-14
115	0xea	-22
116	0xf5	-11
117	0x92	-110
118	0xa2	-94
119	0x10	16
120	0xa0	-96
121	0xbb	-69
122	0xda	-38
123	0x0d	13
124	0xf5	-11
125	0x8a	-118
126	0x6b	107
127	0xe8	-24
128	0x4a	74
129	0xd2	-46
130	0xc9	-55
131	0xf4	-12
132	0x67	103
133	0x7e	126
134	0xe9	-23
135	0x9f	-97
136	0xb0	-80
137	0xef	-17
138	0x70	112
139	0xcf	-49
140	0x6b	107
141	0x3f	63
142	0x9b	-101
143	0xd2	-46
144	0x7f	127
145	0x3d	61
146	0x4c	76
147	0x86	-122
148	0x20	32
149	0xa3	-93
150	0x8c	-116
151	0xfa	-6
152	0x87	-121
153	0x6c	108
154	0x15	21
155	0xd2	-46
156	0x26	38
157	0xba	-70
158	0x2d	45
159	0xf3	-13
160	0xac	-84
161	0xf3	-13
162	0xc3	-61
163	0x0d	13
164	0xdf	-33
165	0xe0	-32
166	0xb8	-72
167	0x69	105
168	0x98	-104
169	0x43	67
170	0xd6	-42
171	0x5c	92
172	0x59	89
173	0x67	103
174	0x79	121
175	0x21	33
176	0x36	54
177	0xe3	-29
178	0x1d	29
179	0x26	38
180	0x0b	11
181	0x3b	59
182	0x6e	110
183	0xc2	-62
184	0x9e	-98
185	0xa8	-88
186	0x5c	92
187	0xd6	-42
188	0xe8	-24
189	0x4f	79
190	0x2f	47
191	0x0c	12
192	0x71	113
193	0x2f	47
194	0xff	-1
195	0x9f	-97
196	0xb9	-71
197	0x3b	59
198	0xca	-54
199	0x5e	94
200	0x9e	-98
201	0xb7	-73
202	0x01	1
203	0xd3	-45
204	0x06	6
205	0x76	118
206	0xd0	-48
207	0xb4	-76
208	0xef	-17
209	0xef	-17
210	0x37	55
211	0x78	120
212	0x5f	95
213	0x4d	77
214	0x03	3
215	0x3b	59
216	0x20	32
217	0xad	-83
218	0xde	-34
219	0x71	113
220	0xb8	-72
221	0x6b	107
222	0x85	-123
223	0xcb	-53
224	0x8a	-118
225	0x14	20
226	0x4c	76
227	0xc6	-58
228	0x29	41
229	0xaf	-81
230	0x56	86
231	0x79	121
232	0xfc	-4
233	0xcf	-49
234	0xf2	-14
235	0x0b	11
236	0x27	39
237	0x9a	-102
238	0x53	83
239	0xa9	-87
240	0xd4	-44
241	0x14	20
242	0x2d	45
243	0xbe	-66
244	0x6e	110
245	0x6c	108
246	0xcc	-52
247	0xbb	-69
248	0x0d	13
249	0x40	64
250	0x9e	-98
251	0x54	84
252	0xa5	-91
253	0x88	-120
254	0xb3	-77
255	0x8f	-113

sequential_1/conv2d_1/Conv2D i1 [16, 3, 3, 8]
0	0x82	-126
1	0xd7	-41
2	0x54	84
3	0x09	9
4	0x98	-104
5	0x0d	13
6	0xa3	-93
7	0xe0	-32
8	0xd4	-44
9	0x64	100
10	0x28	40
11	0xf6	-10
12	0xd1	-47
13	0x36	54
14	0x13	19
15	0x81	-127
16	0x7a	122
17	0xce	-50
18	0x41	65
19	0x8d	-115
20	0x05	5
21	0x8b	-117
22	0xb1	-79
23	0xc6	-58
24	0x93	-109
25	0xf2	-14
26	0xbc	-68
27	0x03	3
28	0xb3	-77
29	0xf6	-10
30	0x26	38
31	0xac	-84
32	0x38	56
33	0x40	64
34	0xdb	-37
35	0x5e	94
36	0x89	-119
37	0xa5	-91
38	0x73	115
39	0x11	17
40	0xf6	-10
41	0xc9	-55
42	0x8c	-116
43	0x6d	109
44	0xd3	-45
45	0x2a	42
46	0xa0	-96
47	0x0c	12
48	0x46	70
49	0xab	-85
50	0xf3	-13
51	0xaf	-81
52	0xd2	-46
53	0xd0	-48
54	0x53	83
55	0x82	-126
56	0xab	-85
57	0x72	114
58	0x29	41
59	0xe8	-24
60	0x1b	27
61	0x63	99
62	0x79	121
63	0x42	66
64	0xc1	-63
65	0xe3	-29
66	0x66	102
67	0xaa	-86
68	0x5a	90
69	0xb7	-73
70	0xc7	-57
71	0xe3	-29
72	0x3b	59
73	0xb3	-77
74	0xf7	-9
75	0xe6	-26
76	0x77	119
77	0x2d	45
78	0x5d	93
79	0x62	98
80	0x5a	90
81	0xf6	-10
82	0x13	19
83	0xf9	-7
84	0xc3	-61
85	0xc7	-57
86	0x4b	75
87	0xc2	-62
88	0xa3	-93
89	0x79	121
90	0x01	1
91	0x42	66
92	0x70	112
93	0x50	80
94	0xa1	-95
95	0x23	35
96	0x1a	26
97	0x7f	127
98	0x90	-112
99	0xc8	-56
100	0xd7	-41
101	0x5f	95
102	0x21	33
103	0x60	96
104	0x0c	12
105	0x83	-125
106	0x41	65
107	0x1b	27
108	0x19	25
109	0x6a	106
110	0xcb	-53
111	0x70	112
112	0xeb	-21
113	0xe3	-29
114	0xa6	-90
115	0x9c	-100
116	0x60	96
117	0x24	36
118	0x18	24
119	0x3e	62
120	0x9d	-99
121	0xc7	-57
122	0xd7	-41
123	0x93	-109
124	0x48	72
125	0x4b	75
126	0xef	-17
127	0x9e	-98
128	0x00	0
129	0xfc	-4
130	0x0d	13
131	0x73	115
132	0x59	89
133	0x7f	127
134	0xb9	-71
135	0x25	37
136	0x8f	-113
137	0xce	-50
138	0xe5	-27
139	0x4b	75
140	0xf0	-16
141	0xf5	-11
142	0x2e	46
143	0xe9	-23
144	0x79	121
145	0xd3	-45
146	0x13	19
147	0x27	39
148	0xc1	-63
149	0x07	7
150	0x9d	-99
151	0x7f	127
152	0x27	39
153	0xd9	-39
154	0x2c	44
155	0x00	0
156	0x56	86
157	0x61	97
158	0x0e	14
159	0xc3	-61
160	0xbf	-65
161	0xfd	-3
162	0xb0	-80
163	0xc2	-62
164	0xe4	-28
165	0x38	56
166	0xc8	-56
167	0x08	8
168	0xe3	-29
169	0xa3	-93
170	0xff	-1
171	0x96	-106
172	0x2b	43
173	0x65	101
174	0x79	121
175	0xa7	-89
176	0x61	97
177	0xf7	-9
178	0x5f	95
179	0x8c	-116
180	0xcb	-53
181	0x1c	28
182	0x1c	28
183	0x0f	15
184	0xd2	-46
185	0xbc	-68
186	0xf3	-13
187	0xbd	-67
188	0xec	-20
189	0x23	35
190	0x3a	58
191	0x18	24
192	0xff	-1
193	0x92	-110
194	0x11	17
195	0xa7	-89
196	0xf0	-16
197	0x6d	109
198	0xed	-19
199	0x9f	-97
200	0xea	-22
201	0xc4	-60
202	0x05	5
203	0xa6	-90
204	0xa2	-94
205	0xa1	-95
206	0xe0	-32
207	0x16	22
208	0x5d	93
209	0xee	-18
210	0xd6	-42
211	0x08	8
212	0x8c	-116
213	0x71	113
214	0xfe	-2
215	0x9e	-98
216	0xdb	-37
217	0x4d	77
218	0x7a	122
219	0xb2	-78
220	0xf8	-8
221	0x8f	-113
222	0x99	-103
223	0x1f	31
224	0x22	34
225	0x0e	14
226	0x7e	126
227	0xe9	-23
228	0x88	-120
229	0x2b	43
230	0x89	-119
231	0xa0	-96
232	0x5d	93
233	0x23	35
234	0xe9	-23
235	0x01	1
236	0xcb	-53
237	0x2f	47
238	0x8a	-118
239	0x3b	59
240	0x8b	-117
241	0x73	115
242	0xa8	-88
243	0xd0	-48
244	0xb9	-71
245	0x2c	44
246	0x13	19
247	0x57	87
248	0x87	-121
249	0xd9	-39
250	0xfb	-5
251	0xf6	-10
252	0x58	88
253	0x48	72
254	0x6c	108
255	0x15	21

sequential_1/conv2d/Conv2D i1 [8, 3, 3, 1]
0	0x32	50
1	0xd2	-46
2	0xa8	-88
3	0xb5	-75
4	0x78	120
5	0x0b	11
6	0x7f	127
7	0x66	102
8	0xd0	-48
9	0x25	37
10	0x07	7
11	0x19	25
12	0xdf	-33
13	0x2e	46
14	0xd7	-41
15	0x76	118
16	0x81	-127
17	0x47	71
18	0x09	9
19	0x85	-123
20	0xb8	-72
21	0x0c	12
22	0x5e	94
23	0x1c	28
24	0xf9	-7
25	0xc9	-55
26	0x7f	127
27	0xe6	-26
28	0x1f	31
29	0xf4	-12
30	0xc3	-61
31	0x60	96
32	0x23	35
33	0x81	-127
34	0x6e	110
35	0x28	40
36	0x90	-112
37	0x98	-104
38	0x41	65
39	0x7f	127
40	0x96	-106
41	0x6f	111
42	0xc8	-56
43	0xdb	-37
44	0x4b	75
45	0x92	-110
46	0x73	115
47	0x7a	122
48	0x81	-127
49	0xe7	-25
50	0x5e	94
51	0x08	8
52	0x16	22
53	0x07	7
54	0x1c	28
55	0x58	88
56	0x7f	127
57	0x7e	126
58	0x5f	95
59	0x00	0
60	0x62	98
61	0xa2	-94
62	0xb9	-71
63	0x15	21
64	0x81	-127
65	0xcf	-49
66	0xb2	-78
67	0xd0	-48
68	0x91	-111
69	0x94	-108
70	0xbf	-65
71	0xc5	-59
